api/myModel.onnx (onnx, 129659 bytes, 11 tensors)

sequential/dense_3/MatMul/ReadVariableOp:0 f4 [120, 1]
0	0xbc70287f	-0.0146580925
1	0x3c1a5e67	0.009421921
2	0xbdea93b2	-0.11453952
3	0x3d8979b0	0.06712663
4	0x3d5e25bf	0.054235216
5	0xbd6eaf68	-0.05827275
6	0xbd12a6f9	-0.03580377
7	0x3d568b0d	0.052378703
8	0xbb3ba1b3	-0.0028630316
9	0x3d002613	0.03128631
10	0x3c4318f8	0.0119078085
11	0x3cbc73c1	0.023004415
12	0x3defc32e	0.117071494
13	0xbda8a538	-0.08234638
14	0xbde1f2dc	-0.1103265
15	0xbd94e973	-0.072710894
16	0xbd7c69a8	-0.0616242
17	0x3e23c2b2	0.15992239
18	0xbdb0f6bd	-0.086408116
19	0xbd3741b8	-0.04474041
20	0xbdf92f35	-0.12167207
21	0xbda2e922	-0.07954623
22	0xbd14376d	-0.03618567
23	0xbd38231e	-0.044955365
24	0x3d971228	0.0737651
25	0xbd040daf	-0.032239612
26	0x3d89de70	0.0673188
27	0xbddb1213	-0.10696807
28	0xbc89dd28	-0.016829088
29	0x3d1369b2	0.03598947
30	0xbd250992	-0.04029233
31	0xbdd37c66	-0.103264615
32	0xbc67b2d4	-0.014141757
33	0xbce6b664	-0.028163143
34	0xbaa95ef6	-0.0012921977
35	0x3d5c0fdd	0.053726066
36	0xbaa1d5e5	-0.0012347071
37	0x3cd5910e	0.026070144
38	0xbd9be2c6	-0.07611613
39	0x3c16b2b4	0.00919788
40	0x3d714574	0.058904126
41	0xbbda9645	-0.0066707456
42	0xbd2de778	-0.042457074
43	0x3c72232b	0.0147788925
44	0xbd90df2a	-0.07073815
45	0xbd29f552	-0.04149372
46	0xbcb4781b	-0.022029927
47	0x3a66e400	0.00088077784
48	0xbdab0462	-0.08350445
49	0xbc67d855	-0.014150699
50	0x3d11659c	0.035497293
51	0xb8b90be8	-8.823705e-05
52	0xbd88b464	-0.06675032
53	0xbdc032ed	-0.09384713
54	0x3dab53e9	0.08365614
55	0xbd99499b	-0.07484742
56	0x3cffb2c6	0.031213176
57	0xbc2b7392	-0.010464566
58	0xbce6c2b1	-0.028169008
59	0x3c0baf37	0.008525661
60	0x3a9903be	0.0011674089
61	0x3d3a4931	0.045479957
62	0xbc1f364b	-0.009717534
63	0xbd69dc84	-0.057095066
64	0xbd5f0e70	-0.054457128
65	0xbd60a157	-0.054841366
66	0xbdf1378a	-0.11778171
67	0x3981a8f8	0.0002473069
68	0xbbaa7b9d	-0.005202724
69	0xbce2b2da	-0.027673174
70	0xbcabf0f9	-0.020988928
71	0xbab982db	-0.0014153378
72	0x3cbac1f6	0.022797566
73	0xbdd61104	-0.10452464
74	0x3d8c3acb	0.06847151
75	0xba01bb80	-0.0004948899
76	0x3d88938e	0.06668769
77	0x3d86953e	0.065714344
78	0xbbc107b5	-0.0058908113
79	0x3c12df4c	0.008964371
80	0xbdce0f3a	-0.10061498
81	0xbc3d55fa	-0.011556143
82	0xbc9e0df7	-0.019293768
83	0x3c1c0bb9	0.009524279
84	0x3e0b6369	0.1361214
85	0xbd6b698e	-0.05747371
86	0xbda6755d	-0.08127854
87	0xbd9e7227	-0.077366166
88	0xbd873cc3	-0.06603386
89	0x3d3ac487	0.04559758
90	0xbc415a72	-0.011801349
91	0x3d5203e8	0.051273257
92	0x3add60c1	0.0016889797
93	0x3d2043b3	0.039127063
94	0xbd601c3a	-0.05471442
95	0xbd01b742	-0.03166891
96	0xbda5b39b	-0.08090898
97	0xbca119ef	-0.019665686
98	0x3b761164	0.0037546987
99	0xbda7e897	-0.0819866
100	0xbdd4861f	-0.10377144
101	0xbd7e161e	-0.06203281
102	0x3cd25fa8	0.025680378
103	0x3da13658	0.078716934
104	0xbc14473c	-0.009050187
105	0x3b35b2da	0.0027725012
106	0xbd74cad8	-0.05976376
107	0xbc7400ab	-0.014892737
108	0xbd3b7b56	-0.04577192
109	0xbdf8e6d9	-0.12153406
110	0xbb651cdf	-0.0034959835
111	0x3de2e2a5	0.11078385
112	0x3c25a14a	0.010109255
113	0xbc8b7aed	-0.017026389
114	0xbd6f8e72	-0.058485456
115	0xbd102e82	-0.035200603
116	0xbd8449b0	-0.06459367
117	0x3e0b6ba2	0.13615277
118	0x3bb91343	0.005648048
119	0xbc620668	-0.013795473

sequential/dense_2/MatMul/ReadVariableOp:0 f4 [120, 120]
0	0x3d07ee39	0.03318617
1	0x3e1cf038	0.15326011
2	0xbd248eb0	-0.04017514
3	0x3e260e6a	0.16216436
4	0x3d871529	0.06595833
5	0xbdb0c9ff	-0.08632278
6	0xbde250ef	-0.11050593
7	0xbe057c0b	-0.130356
8	0xbd46e259	-0.048555706
9	0xbd89ae50	-0.067227006
10	0x3dab196e	0.0835446
11	0x3d81a3ba	0.063300565
12	0x3dd32c20	0.103111506
13	0x3d302b05	0.043009777
14	0xbe21fe4f	-0.15819667
15	0x3d53a514	0.051671103
16	0xbe1f395a	-0.15549222
17	0xbd886a40	-0.066608906
18	0xbdf448ae	-0.11927925
19	0x3cd13908	0.02553989
20	0x3da0b23c	0.078464955
21	0xbe015ac3	-0.12632279
22	0xbe285b37	-0.16441046
23	0xbe3b8da3	-0.18315749
24	0x3d4548e5	0.04816522
25	0x3c110ede	0.008853642
26	0x3d7a7cc2	0.061154135
27	0x3ca1e3e4	0.019761987
28	0xbd85cdae	-0.06533371
29	0x3d954f09	0.072904654
30	0xbdadef8d	-0.08492956
31	0x3d06f693	0.032949995
32	0x3d736bfb	0.05942915
33	0x3bed4e1e	0.0072419783
34	0xbd8e9c73	-0.06963434
35	0x3e2f8acb	0.17142789
36	0x3d95b3a5	0.07309655
37	0xbd70d77c	-0.058799252
38	0x3db2eca6	0.08736543
39	0xbe26e39b	-0.16297762
40	0xbdb12cda	-0.08651133
41	0xbda60a46	-0.08107428
42	0x3d90198a	0.07036121
43	0x3d8b3667	0.06797486
44	0xbd45b072	-0.048263974
45	0xbd887b71	-0.066641696
46	0xbda14b59	-0.078756995
47	0x3cb2a602	0.021807674
48	0x3c3a2884	0.011362199
49	0x3df98a2b	0.121845566
50	0x3b95d2e8	0.004572261
51	0xbc8256a4	-0.015910454
52	0x3dc013be	0.093787655
53	0xbdbd4460	-0.09241557
54	0xbe0bcf23	-0.13653235
55	0x3dd17dd6	0.102290794
56	0x3d8dc2f7	0.06921952
57	0x3c855eb5	0.016280511
58	0x3d882446	0.066475436
59	0xbe03117e	-0.12799641
60	0x3db3b6e5	0.08775119
61	0xbd5eb082	-0.05436755
62	0xbdf4eb68	-0.11958963
63	0xbd098391	-0.033572737
64	0xbd6052d2	-0.054766484
65	0xbd483adc	-0.048884258
66	0x3cd5f973	0.026119923
67	0x3d9a15fc	0.075237244
68	0xbe3853f9	-0.18000783
69	0xbb8199bb	-0.0039550937
70	0xbd290412	-0.041263647
71	0x3d39e95f	0.045388576
72	0xbd856656	-0.0651366
73	0x3da20e50	0.07912886
74	0x3d404a22	0.0469457
75	0xbdb3bdde	-0.08776449
76	0x3c4409ae	0.011965198
77	0x3ce01895	0.027355472
78	0x3c7d4590	0.0154584795
79	0x3dc98961	0.09840656
80	0x3d84f104	0.064912826
81	0x3d92d717	0.071699314
82	0x3dc861e2	0.09784295
83	0xbd9b0286	-0.07568841
84	0xbe03bc6d	-0.12864847
85	0x3de44d74	0.111475855
86	0x3d70837f	0.058719154
87	0xbdcfd925	-0.10148839
88	0x3d9c86f2	0.07642926
89	0x3adbf8a6	0.0016782477
90	0x3d817fde	0.06323217
91	0x3db9c60c	0.090709776
92	0xbd3e2009	-0.04641727
93	0x3dc0d2a1	0.09415174
94	0xbda02c8d	-0.078209974
95	0x3dc78bd9	0.09743471
96	0x3dbf46a8	0.093396485
97	0x3daffc2d	0.085930206
98	0xbd10b3eb	-0.035327833
99	0x3d5bb575	0.053639848
100	0x3dc4248a	0.09577282
101	0x3def2ea3	0.11678817
102	0xbd8baafc	-0.06819722
103	0x3e2d5f10	0.16930795
104	0x3d3950ec	0.04524319
105	0xbd705a98	-0.058680147
106	0xbd77fd4d	-0.0605443
107	0xbde39e20	-0.11114144
108	0xbe19ffde	-0.15039012
109	0x3d6f2fc1	0.05839515
110	0x3dce58b8	0.100755155
111	0x3dbf507d	0.09341524
112	0xbbbb5958	-0.0057174377
113	0xbe25e1be	-0.16199395
114	0x3d9d7c6b	0.076897465
115	0xbe2cadbb	-0.16863148
116	0x3cd36116	0.02580313
117	0xbc64a012	-0.013954179
118	0x3e3824a1	0.17982723
119	0xbda46bb3	-0.080283545
120	0xbe3f04d6	-0.18654189
121	0x3df558a5	0.11979798
122	0x3e039a8c	0.12851924
123	0x3db96225	0.09051923
124	0xbddd5f4d	-0.10809193
125	0x3d979b31	0.07402647
126	0x3c8a85b9	0.016909467
127	0x3deb5218	0.114902675
128	0x3d00a57a	0.03140781
129	0x3dcf636a	0.101263836
130	0x3dbc2364	0.09186438
131	0xbdee50f0	-0.11636531
132	0xbd7f94ee	-0.06239789
133	0x3e105f95	0.14098962
134	0xbdbaf71a	-0.09129162
135	0xbd05cf5e	-0.032668464
136	0xbdec6d4d	-0.11544285
137	0xbd2d0e6c	-0.042250082
138	0x3cd7b811	0.026332887
139	0xbce23384	-0.027612455
140	0xbdd60709	-0.104505606
141	0xbd276001	-0.04086304
142	0xbdee676e	-0.116408214
143	0xbe2c8d7f	-0.16850851
144	0xbe289efb	-0.16466896
145	0xbdd0b702	-0.10191156
146	0x3b8e0087	0.004333559
147	0xbe02f39b	-0.1278824
148	0xbd8fa450	-0.07013762
149	0xbd1ff38d	-0.039050627
150	0xbd9c1553	-0.07621255
151	0x3e081906	0.13290796
152	0xbe0f4f90	-0.13995194
153	0x3d7367ba	0.059425093
154	0xbdcfc200	-0.101444244
155	0xbe0a8a27	-0.13529263
156	0xbc6baa29	-0.014383831
157	0x3d2079fa	0.039178826
158	0xbe621266	-0.22077331
159	0xbdcf86fd	-0.10133169
160	0xbdef9eb3	-0.11700191
161	0x3e1dcec4	0.15410906
162	0xbce14a23	-0.027501171
163	0x3c807b4c	0.015683793
164	0xbc6cb646	-0.014447754
165	0x3dbbfcde	0.0917909
166	0x3d5a8841	0.053352598
167	0x3dddb0fe	0.10824774
168	0x3d6d1452	0.057880707
169	0x3e050426	0.12989864
170	0x3d514ac6	0.0510967
171	0x3d68a0e7	0.056794073
172	0xbe30b2bc	-0.17255682
173	0x3dbf14b6	0.09330122
174	0xbd1c941e	-0.038227193
175	0xbe0297e4	-0.12753254
176	0xbe10b742	-0.14132407
177	0x3dd37383	0.103247665
178	0x3bac194f	0.0052520405
179	0x3db43d2f	0.08800732
180	0x3d985fde	0.0744016
181	0xbd4629dd	-0.048379768
182	0xbdedc9f7	-0.11610787
183	0xbdce3473	-0.10068598
184	0x3b000d2f	0.0019539108
185	0xbc91edaa	-0.017813522
186	0xbe56ee6b	-0.20989387
187	0x3d704b3a	0.05866549
188	0xbdb62da2	-0.088954225
189	0xbe166f78	-0.1469096
190	0x3e0d0bb1	0.13773991
191	0xbdc14684	-0.09437278
192	0xbd262bb5	-0.040569026
193	0x3e0cd402	0.1375275
194	0x3d71411c	0.058899984
195	0x3cbb190f	0.022839097
196	0xbdbc4c0d	-0.09194193
197	0xbdbd9f40	-0.0925889
198	0x3e0d934e	0.13825724
199	0xbdcde6d5	-0.10053793
200	0xbe0e1c9f	-0.13878106
201	0x3c4009b8	0.011721067
202	0xbd9561a7	-0.07294016
203	0x3dd4eebb	0.10397097
204	0xbd9ddf33	-0.077085875
205	0xbe1ba8d1	-0.15201117
206	0x3df92f26	0.12167196
207	0xbe0188c5	-0.1264983
208	0x3c922de6	0.017844152
209	0xbbb6901d	-0.005571379
210	0x3d4a2c9a	0.04935894
211	0xbce6fc93	-0.028196609
212	0xbd3b4240	-0.045717478
213	0xbe0c3907	-0.13693629
214	0xbd99bb08	-0.075063765
215	0xbdd5de07	-0.10442739
216	0x3d911c5d	0.07085488
217	0x3d717b17	0.05895528
218	0x3da0fa37	0.07860225
219	0xbe34ad94	-0.1764434
220	0x3de4d098	0.111725986
221	0xbd7d914b	-0.06190614
222	0x3dde9df6	0.108699724
223	0xbe324e7e	-0.17412755
224	0x3dd4ef99	0.10397262
225	0x3ca8805b	0.020569017
226	0xbc7b255a	-0.0153287295
227	0xbd22a26b	-0.039705675
228	0x3da1b929	0.078966446
229	0x3d88149e	0.066445574
230	0xbda7dcf1	-0.08196438
231	0xbdcc647b	-0.09980103
232	0x3d4df90d	0.05028634
233	0x3e09c607	0.13454448
234	0xbe08e0d8	-0.13367021
235	0x3ded2b51	0.115805276
236	0x3d8c52aa	0.068517044
237	0x3dcea470	0.10089958
238	0x3d72b4a2	0.059254296
239	0xbd6a0777	-0.057136025
240	0xbd2c2279	-0.042025063
241	0x3dddb1c9	0.108249255
242	0x3c93856a	0.018007953
243	0xbd4bfc6c	-0.049801275
244	0xbd180ac7	-0.037119653
245	0xbdc1f952	-0.09471382
246	0xbe1d3381	-0.15351678
247	0x3dc02f97	0.09384077
248	0xbae6b2d4	-0.0017600902
249	0x3db218e4	0.08696154
250	0xbdf5d820	-0.12004113
251	0xbe0a8438	-0.13527
252	0xbe0191d1	-0.12653281
253	0xbda783ca	-0.08179434
254	0xbcb1465d	-0.021639997
255	0xbc618acd	-0.013766003

sequential/dense_2/BiasAdd/ReadVariableOp:0 f4 [120]
0	0x3bd0ca7a	0.0063717933
1	0xbcefeb05	-0.02928687
2	0xbd1cf179	-0.038316224
3	0x3a5c661e	0.00084075506
4	0x3c8551e1	0.016274394
5	0x3dbc4e3d	0.0919461
6	0x3d654399	0.05597267
7	0xbdab969b	-0.08378335
8	0xbd2994a6	-0.041401528
9	0xbd663474	-0.056202367
10	0xbd7b41e5	-0.06134214
11	0xbcddc517	-0.027071519
12	0xbd128d4b	-0.03577928
13	0x3d89d0a1	0.06729246
14	0xbd611ac4	-0.054957166
15	0xbd1e86f0	-0.038702905
16	0xbc992ba1	-0.018697562
17	0xbd4ebd38	-0.05047342
18	0xbc9fa9dd	-0.019490177
19	0xbb9f4c16	-0.004861365
20	0xbd3a1005	-0.045425434
21	0xbd3830df	-0.044968482
22	0x3cd57da5	0.026060889
23	0x3d8f3285	0.06992058
24	0x3bf0d4b5	0.0073495754
25	0x3af14463	0.0018407222
26	0x3d031395	0.032001097
27	0xbd540f01	-0.05177212
28	0xbd86e03d	-0.06585739
29	0xbdccf1e4	-0.100070745
30	0xbd11fee3	-0.03564347
31	0xbcf7d561	-0.030253114
32	0xbcb14e80	-0.021643877
33	0x3d703b99	0.058650587
34	0xbd055fb1	-0.03256196
35	0x3d4a7fc1	0.049438242
36	0xbd199bba	-0.037502028
37	0xbd2b507d	-0.041824806
38	0xbd54722e	-0.051866703
39	0xbd9e9729	-0.07743675
40	0xbc1e1d00	-0.009650469
41	0xbc5e2823	-0.013559374
42	0xbd49842f	-0.049198326
43	0xbdb871a6	-0.09006052
44	0x3d35f889	0.044426475
45	0x3d8d696e	0.06904875
46	0xb7fbdd60	-3.0024617e-05
47	0xbd1245f4	-0.035711244
48	0xbd22fb35	-0.03979035
49	0xbd8a0c6a	-0.06740649
50	0xbb9bbf7b	-0.004753051
51	0xbccb1306	-0.024789345
52	0x3cd101d6	0.02551357
53	0x3da74be6	0.08168773
54	0xbd8b4f35	-0.06802217
55	0x3d05c91f	0.032662507
56	0x3c84799e	0.016171273
57	0xbd41a7bf	-0.047279116
58	0x3b1200c2	0.0022278284
59	0xbe01a6e1	-0.12661316
60	0xbcb4cf85	-0.02207161
61	0x3cc4806d	0.02398702
62	0x3cb329d4	0.021870531
63	0xbd09041b	-0.03345118
64	0xbc6fa5f6	-0.0146269705
65	0x3c74635e	0.014916269
66	0xbd6525bd	-0.055944193
67	0xbda91ebc	-0.08257815
68	0xbd5677d0	-0.052360356
69	0xbd41c58f	-0.047307547
70	0x3b9ab495	0.004721234
71	0xbd8e749d	-0.06955836
72	0xbc55da34	-0.013052512
73	0xbca9635c	-0.020677261
74	0xbd0b9ad6	-0.03408321
75	0xbd2c9be0	-0.04214084
76	0xbcd3d0f7	-0.025856478
77	0x3cb9b853	0.0226709
78	0xbd124e22	-0.035719045
79	0xbd758e11	-0.05994994
80	0x3dfbf6fa	0.123029664
81	0x3cac6042	0.021041993
82	0x3c233fe1	0.00996396
83	0xbccae399	-0.02476673
84	0x3d7b52db	0.061358314
85	0x3d5f7719	0.05455694
86	0x3d8cd3b7	0.06876319
87	0xbd2d6055	-0.042328198
88	0x3c214579	0.009843224
89	0xbc22044f	-0.009888723
90	0xbc22e606	-0.009942537
91	0xbdeeddb0	-0.11663377
92	0xbce74554	-0.0282313
93	0x3c977de7	0.018492652
94	0x3d21924e	0.039446168
95	0x3da01831	0.07817114
96	0x3d19a00c	0.03750615
97	0xbd07c43f	-0.03314614
98	0x3a739de9	0.0009293245
99	0xbcc6cd98	-0.024267957
100	0x3dc8992b	0.097948395
101	0x3c5e4987	0.013567335
102	0xbd8f2759	-0.06989927
103	0x3c00e43a	0.007866913
104	0x3cb6509d	0.022255236
105	0xbcd4270b	-0.025897523
106	0x3d9ac14b	0.07556399
107	0xbd693063	-0.05693091
108	0xbba7dc7e	-0.0051227203
109	0xbcfc1a78	-0.03077434
110	0x3d01cba1	0.031688336
111	0x3d6f36cb	0.058401864
112	0xbda8f90c	-0.08250627
113	0xbb916f20	-0.004438296
114	0x3ca2cddc	0.019873552
115	0x3d974962	0.073870435
116	0x3d2029c4	0.03910233
117	0xbd2de468	-0.042454153
118	0xbd1badab	-0.03800742
119	0x3b59848e	0.003319058

sequential/dense_1/MatMul/ReadVariableOp:0 f4 [120, 120]
0	0xbd9741e8	-0.073856175
1	0xbe0e6fa7	-0.1390978
2	0xbd65411b	-0.055970293
3	0x3be8c584	0.007103624
4	0x3d6f1c05	0.05837633
5	0x3dc30a7b	0.09523483
6	0xbdc0ad53	-0.09408059
7	0xbd83c64c	-0.064343065
8	0x3d82da6a	0.063893154
9	0x3ae33368	0.0017334046
10	0xbde615de	-0.112346396
11	0xbca73356	-0.020410221
12	0xbe0d4016	-0.13793978
13	0x3c8d9762	0.017284099
14	0xbd55f253	-0.05223305
15	0x3cae2d0e	0.021261718
16	0x3d984f66	0.07437019
17	0xbd9d986f	-0.0769509
18	0x3d6984d4	0.05701144
19	0xbd29c342	-0.041445978
20	0xbdef6c72	-0.11690606
21	0x3d451173	0.048112344
22	0xbd7dbcdc	-0.06194769
23	0x3ca1b4a8	0.019739464
24	0x3e39ec19	0.1815647
25	0xbdf0a6f0	-0.11750591
26	0xbca639db	-0.02029126
27	0xbe102272	-0.1407564
28	0xbda88505	-0.082284965
29	0xbd91cd0c	-0.07119188
30	0x3da3b113	0.079927586
31	0xbdbb160a	-0.09135063
32	0xbde3f5c7	-0.11130863
33	0x3d4e3e57	0.05035242
34	0x3d30aa0c	0.04313092
35	0xbb3d78c9	-0.0028911105
36	0xbd336637	-0.04379865
37	0xbd84d8c3	-0.064866565
38	0xbc0cd069	-0.008594611
39	0xbb85c767	-0.0040826085
40	0x3d6b698e	0.05747371
41	0x3d72ad6b	0.059247416
42	0xbdfe588f	-0.12419235
43	0xbe31507c	-0.17315859
44	0xb9bb33ca	-0.00035706005
45	0xbc8ed0fa	-0.017433632
46	0x3dbe3b00	0.09288597
47	0x3c125d24	0.008933339
48	0x3dffb303	0.12485316
49	0x3e2525c0	0.16127682
50	0x3d0990c2	0.033585317
51	0x3db4366c	0.08799443
52	0x3cdee396	0.02720813
53	0x3d9f77d4	0.07786527
54	0x3c7636dd	0.015027729
55	0x3dbc9339	0.09207768
56	0x3d44e9ce	0.048074536
57	0xbe0a4eaf	-0.13506578
58	0xbe06c344	-0.13160425
59	0x3c8de828	0.017322615
60	0xbcb6c94d	-0.022312785
61	0xbd958cfc	-0.07302281
62	0x3dd3c821	0.10340906
63	0x3cf36423	0.029710835
64	0xbd2930e4	-0.04130639
65	0x3c796b8c	0.015223395
66	0xb828f2c0	-4.02804e-05
67	0xbd88080f	-0.06642162
68	0xbd493f8a	-0.04913286
69	0xbe0d827d	-0.13819309
70	0xbdd09004	-0.10183719
71	0xbda95a82	-0.08269216
72	0xbd42c108	-0.04754737
73	0xbd70a76e	-0.058753423
74	0x3c8114fb	0.015757075
75	0xbdcc161f	-0.09965157
76	0x3d8c5d0b	0.06853684
77	0x3d913d7f	0.070918076
78	0xbd14079e	-0.036140077
79	0x3de62387	0.11237245
80	0xbcd6f959	-0.026241945
81	0xbce7444f	-0.028230814
82	0x3e07affd	0.13250728
83	0xbdd2139b	-0.10257646
84	0xbd9d56c4	-0.07682565
85	0x3da8f16d	0.08249173
86	0xbde856bf	-0.113446705
87	0xbd5c5bfa	-0.053798653
88	0x3d4fbf21	0.050719384
89	0x3c1c816e	0.009552343
90	0x3da2ddda	0.07952471
91	0xbd252302	-0.04031659
92	0x3b2466a9	0.0025085604
93	0xbd082a1d	-0.033243287
94	0x3e07abd4	0.13249141
95	0xbcca6c43	-0.024709826
96	0xbdc3eef2	-0.095670596
97	0x3d4a277a	0.049354054
98	0xbdd0b3eb	-0.10190567
99	0xbd939075	-0.07205287
100	0x3d9bf42f	0.07614934
101	0x3cf871e2	0.030327741
102	0xbe06feea	-0.1318318
103	0x3d9b09e2	0.07570244
104	0xbe25f58b	-0.16206948
105	0xbe2a3b7d	-0.16624255
106	0x3d228f8d	0.039687682
107	0x3da990df	0.08279585
108	0xbdb1e71b	-0.08686658
109	0xbe0586a5	-0.13039644
110	0xbd81fb04	-0.063467056
111	0x3d45f55f	0.048329707
112	0xbe5c0fdf	-0.2149043
113	0x3caf593f	0.02140486
114	0x3d9276d0	0.07151568
115	0x3d641c00	0.055690765
116	0xbe178c5b	-0.14799635
117	0x3ddb62eb	0.107122265
118	0x3d76b2fe	0.060229294
119	0xbdc6cba7	-0.09706812
120	0x3d42c9b4	0.04755564
121	0x3cc70663	0.024295038
122	0x3d53c229	0.051698837
123	0x3e0d11ec	0.13776368
124	0xbd502471	-0.050816003
125	0xbd28f4a7	-0.041248944
126	0x3daee3d9	0.08539552
127	0x3ce48bba	0.027898658
128	0x3d3a21d1	0.045442406
129	0xbd1ae024	-0.037811413
130	0x3e009193	0.12555532
131	0x3a45ad2b	0.00075407577
132	0xbe120d12	-0.14262798
133	0xbd977448	-0.07395226
134	0x3d7095fe	0.058736794
135	0xbdaa28da	-0.08308573
136	0x3a943f38	0.0011310345
137	0x3844a1c8	4.6880712e-05
138	0xbe0380f2	-0.12842157
139	0x39895597	0.00026194446
140	0x3dcbd0b5	0.09951917
141	0x3d934c02	0.07192232
142	0x3db38889	0.087662764
143	0x3b415a4f	0.002950329
144	0x3d2aa773	0.0416636
145	0xbd8bcc39	-0.06826062
146	0x3d73d15d	0.059525836
147	0xbe025dd1	-0.127311
148	0xbda07ac8	-0.07835919
149	0x3da17485	0.078835525
150	0xbde2293b	-0.1104302
151	0x3d631af4	0.055445626
152	0xbd0507c1	-0.032478098
153	0xbe2a682e	-0.16641304
154	0x3d7f8115	0.06237896
155	0x3d4fc285	0.050722618
156	0x3d1b7780	0.03795576
157	0x3dbc8f9e	0.0920708
158	0xbe28b9a5	-0.16477068
159	0xbc199414	-0.0093736835
160	0x3d68b6e6	0.05681505
161	0x3dab1a4d	0.08354626
162	0x3e095a0c	0.13413256
163	0x3e1e1fb1	0.15441777
164	0x3ce41a0b	0.02784445
165	0x3db35787	0.08756929
166	0x3e05b26f	0.13056348
167	0x3d2589f0	0.04041475
168	0x3c6d2204	0.014473442
169	0xbd9a23ec	-0.07526383
170	0xbd0c4375	-0.03424402
171	0xbd994293	-0.07483401
172	0x3dcc1b7d	0.099661805
173	0xbc3ee8b3	-0.0116521595
174	0x3c268e41	0.010165752
175	0x3db17eca	0.08666761
176	0xbd52ced0	-0.051466763
177	0x3d7882e8	0.060671717
178	0x3da505d4	0.08057752
179	0x3dc7062a	0.097179726
180	0x3e14ab43	0.14518456
181	0xbc912ca7	-0.017721487
182	0x3cfa6515	0.030565778
183	0x3dc202f9	0.09473223
184	0x3d9d49a9	0.07680065
185	0x3cb51cb8	0.02210842
186	0xbbc24975	-0.005929167
187	0x3e2585d0	0.16164327
188	0xbdd2c0ff	-0.10290717
189	0xbe50fe64	-0.20409542
190	0xbe2d43f7	-0.16920458
191	0x3e107326	0.14106426
192	0xbda98a01	-0.08278275
193	0xbddbda60	-0.10735011
194	0x3e0370b4	0.12835962
195	0x3d7c0aa6	0.061533593
196	0x3cd3faaa	0.025876362
197	0x3e2480d4	0.16064769
198	0xbd5d1651	-0.05397636
199	0x3db7a1e1	0.08966423
200	0x3e1a5e84	0.15075117
201	0x3c9127fd	0.017719263
202	0xbce52aaf	-0.027974455
203	0x3d9aeccd	0.075646974
204	0x3dbbfe6e	0.09179388
205	0x3cc00f85	0.0234449
206	0x3d20bfd1	0.03924543
207	0x3de0069a	0.10938759
208	0x3c3a0446	0.011353558
209	0x3d4fde53	0.050749134
210	0xbe17fb9c	-0.14842075
211	0x3dc48214	0.09595123
212	0xbc6ffa85	-0.014647131
213	0x3ce79efd	0.028274054
214	0xbdd7a0f4	-0.10528746
215	0x3de91cf0	0.113824725
216	0xbd985427	-0.07437926
217	0x3daf0573	0.08545961
218	0xbdede9cf	-0.11616861
219	0xbdb6bf64	-0.089232236
220	0x3d343476	0.043995343
221	0xbcbd9ccb	-0.023146054
222	0xbddd672f	-0.10810696
223	0x3cbcbd69	0.023039537
224	0xbdd0bbfc	-0.10192105
225	0xbccf707d	-0.025322193
226	0xbc41f2da	-0.0118376855
227	0x3c608f59	0.013706052
228	0x3d6affdb	0.05737291
229	0xbe1222b0	-0.14271045
230	0x3dbdab14	0.09261146
231	0x3d94b6c4	0.07261422
232	0xbd9f325a	-0.07773276
233	0x3e042403	0.12904362
234	0x3d45375c	0.048148498
235	0x3dc1ffd9	0.09472627
236	0xbd6239eb	-0.055231016
237	0xbd5871cc	-0.0528429
238	0x3cf04b64	0.029332824
239	0xbda1533a	-0.07877202
240	0xbd6168df	-0.055031653
241	0xbdacdf10	-0.08440983
242	0xbd4ba57c	-0.049718365
243	0xbde378ab	-0.11107
244	0xbddb46e1	-0.107068785
245	0xbe0f2b93	-0.13981466
246	0x3d73f859	0.059563015
247	0x3d7a923c	0.061174616
248	0x3e15670d	0.14590092
249	0xbca9cc31	-0.020727249
250	0xbda6bada	-0.08141108
251	0x3dc390e4	0.0954912
252	0xbe099077	-0.13434015
253	0x3db1b728	0.086775124
254	0xbc707b84	-0.014677886
255	0xbd845d55	-0.06463114

sequential/dense_1/BiasAdd/ReadVariableOp:0 f4 [120]
0	0xbd4c723d	-0.049913634
1	0xbd6d96d5	-0.058005173
2	0xbded4dfa	-0.115871385
3	0xbd0f326c	-0.034960195
4	0xbda0ac9e	-0.07845424
5	0xbda3d35d	-0.07999299
6	0xbdbb502c	-0.09146151
7	0xbd2a96af	-0.04164761
8	0xbd74cd14	-0.05976589
9	0xbc2922b8	-0.010323219
10	0xbd2df314	-0.042468145
11	0xbd429808	-0.04750827
12	0xbd8c9526	-0.06864385
13	0xbcda2def	-0.026633231
14	0xbd16b9d0	-0.0367983
15	0xbdc6c7d3	-0.09706082
16	0xbd3e254e	-0.046422295
17	0xbc8f1b5c	-0.0174691
18	0x3ba97791	0.005171724
19	0xbd86617f	-0.06561565
20	0xbd5f5d14	-0.054532126
21	0xbd315128	-0.043290287
22	0xbd0d8daf	-0.034558948
23	0xbcf893a0	-0.03034383
24	0xbdb976f3	-0.09055891
25	0xbd5e8c01	-0.054332737
26	0xbb077f7a	-0.0020675347
27	0xbd6bb679	-0.057547066
28	0xbc72ca26	-0.014818704
29	0xbd0f0878	-0.034920186
30	0xbdd9d645	-0.10636572
31	0xbe4009ed	-0.18753786
32	0xbd1c90f8	-0.03822419
33	0xbd84a6d1	-0.0647713
34	0xbdb892c5	-0.09012369
35	0xbc239d64	-0.009986255
36	0xbda5e49d	-0.08100245
37	0xbdec24f0	-0.11530483
38	0xbd8fb785	-0.070174254
39	0x3c14da3f	0.009085237
40	0xbd8e151f	-0.06937622
41	0xbdd5e873	-0.10444727
42	0xbd9743d0	-0.07385981
43	0x3b815fbc	0.00394818
44	0xbd693a88	-0.056940585
45	0xbcde8d67	-0.027167035
46	0xbd70ef3b	-0.058821898
47	0xbdc7769b	-0.09739419
48	0xbcf9c97f	-0.030491589
49	0xbd61ffe0	-0.055175662
50	0xbd78a8d3	-0.06070788
51	0xbd26db7c	-0.04073666
52	0xbd9acbce	-0.07558404
53	0xbd81e7bb	-0.06343027
54	0xbda32c78	-0.07967466
55	0xbd717f13	-0.058959078
56	0xbd01f08b	-0.03172354
57	0xbd4cebf5	-0.050029714
58	0xbd485524	-0.04890932
59	0xbd85a442	-0.0652547
60	0xbda97358	-0.08273953
61	0xbd96108e	-0.07327376
62	0xbd17d727	-0.03707042
63	0xbd962137	-0.07330554
64	0xbe13c15c	-0.1442923
65	0xbe01ac30	-0.1266334
66	0xbd06c294	-0.032900408
67	0xbdc0f6c9	-0.094220705
68	0xbd8ebe5b	-0.06969901
69	0xbd301f53	-0.042998623
70	0x3c931af6	0.017957192
71	0xbd3713bd	-0.04469656
72	0xbd7275bd	-0.059194315
73	0xbd183094	-0.037155703
74	0xbd49032b	-0.049075287
75	0xbdafd18c	-0.0858489
76	0xbd3db56b	-0.04631559
77	0xbd201ecf	-0.03909188
78	0xbd91cbac	-0.071189255
79	0xbd14ab27	-0.036296036
80	0xbd917a2a	-0.07103379
81	0xbc85c07b	-0.016327133
82	0xbd573674	-0.052542165
83	0xbd606767	-0.054786112
84	0xbd945a3d	-0.07243774
85	0xbd35213c	-0.044221148
86	0xbcf45a2f	-0.02982816
87	0xbd6e6ca4	-0.058209077
88	0xbc62c39a	-0.01384058
89	0xbcd8ac28	-0.026449278
90	0xbdc9fd78	-0.098627985
91	0xbcc22db6	-0.023703437
92	0xbcb892cb	-0.022530934
93	0xbd78538c	-0.06062655
94	0xbd3c217f	-0.045930382
95	0xbd4a4c3b	-0.049389105
96	0xbc6f2707	-0.014596707
97	0xbd8be485	-0.06830696
98	0x3bc565c5	0.0060240948
99	0xbd6e1f82	-0.058135517
100	0xbd877ca1	-0.06615568
101	0xbd4be463	-0.049778353
102	0xbced6e15	-0.028983155
103	0xbd566a7e	-0.052347653
104	0xbdcc4c99	-0.09975547
105	0xbca8a092	-0.020584378
106	0xbd9d4a30	-0.07680166
107	0xbd9acd11	-0.075586446
108	0xbda51f9b	-0.08062669
109	0xbd72d2f0	-0.059283197
110	0xbd602457	-0.054722156
111	0xbdefde10	-0.11712277
112	0xbcfee3c9	-0.031114476
113	0xbdd89762	-0.10575749
114	0xbdcc52a3	-0.09976699
115	0xbd773b7e	-0.06035947
116	0xbd191685	-0.037374992
117	0x3c34e743	0.011041465
118	0xbcba7268	-0.022759631
119	0xbd77d8a9	-0.060509358

sequential/dense/MatMul/ReadVariableOp:0 f4 [18, 120]
0	0x3d0fbad4	0.035090283
1	0xbe35d89e	-0.17758414
2	0x3dd259a3	0.10271003
3	0xbe34d67d	-0.17659946
4	0xbdc7302f	-0.09725987
5	0xbd7029a2	-0.058633454
6	0x3e36d43b	0.17854397
7	0x3e1817f3	0.14852886
8	0x3d9cc8f8	0.07655519
9	0xbd7c9611	-0.061666552
10	0x3e4199e4	0.18906361
11	0xbde94ae2	-0.11391236
12	0x3cfc24eb	0.030779323
13	0x3de5685c	0.112015456
14	0x3e3e77eb	0.18600433
15	0x3d352c30	0.044231594
16	0x3d695b50	0.056971848
17	0x3dd54bd2	0.10414852
18	0x3c13645c	0.0089960955
19	0x3dd064bb	0.10175463
20	0xbe38ee72	-0.1805971
21	0x3e4ab2ff	0.19794844
22	0x3c7facdb	0.015605177
23	0xbc5aca5b	-0.013353909
24	0xbdeccd52	-0.11562599
25	0xbda449c2	-0.08021881
26	0xbd9144de	-0.070932135
27	0xbdf8deed	-0.12151895
28	0xbc82a60a	-0.015948314
29	0x3c6b5c53	0.0143652735
30	0x3db3b225	0.08774213
31	0x3e27348b	0.16328637
32	0x3e318641	0.1733637
33	0x3ddfb4f5	0.10923187
34	0x3da8458a	0.082163885
35	0x3d4d11d1	0.05006582
36	0x3e03c2e2	0.1286731
37	0x3dc41f18	0.09576243
38	0x3d097620	0.03355992
39	0xbd83f3b5	-0.06442968
40	0x3da42ba4	0.08016136
41	0x3e7c754d	0.24654122
42	0xbe3ba707	-0.18325435
43	0xbdc7c19f	-0.09753727
44	0xbd64dac3	-0.05587269
45	0x3e326859	0.17422618
46	0x3e3b4dc2	0.18291381
47	0x3dbd3c7d	0.09240053
48	0x3ce9e2f2	0.028550599
49	0xbe298a15	-0.1655658
50	0x3d456913	0.04819591
51	0x3e63b198	0.22235715
52	0xbdd97f0d	-0.10619936
53	0x3d060fdf	0.03272998
54	0x3d261480	0.040546894
55	0xbe0756a4	-0.13216645
56	0xbdc26317	-0.09491556
57	0x3e6746a7	0.22585545
58	0x3e12c740	0.1433382
59	0x3daccc46	0.084373996
60	0xbe17de25	-0.14830835
61	0xbbf3ce6b	-0.0074403784
62	0x3e1cd5f9	0.15315999
63	0x3d80db55	0.06291834
64	0xb91344c4	-0.0001404463
65	0xbdc9f1bf	-0.098605625
66	0x3d8b6d11	0.06807912
67	0x3d50371c	0.050833806
68	0xbe31a0d5	-0.17346509
69	0x3e399978	0.1812495
70	0x3da737b9	0.08164925
71	0x3e6f69fc	0.23380274
72	0x3dda22ac	0.106511444
73	0x3e82cdd0	0.25547647
74	0x3de00460	0.109383345
75	0x3cdc1dfc	0.026869766
76	0xbd13c620	-0.03607762
77	0x3c05ace4	0.008158896
78	0xbdc3536a	-0.09537394
79	0xbd403a2b	-0.046930473
80	0x3e1453dc	0.14485115
81	0x3d7594a9	0.059956226
82	0x3e25893d	0.16165633
83	0x3e66330d	0.22480412
84	0x3e604d16	0.21904406
85	0xbcbf347c	-0.023340456
86	0x3e28ccc0	0.16484356
87	0xbd6024da	-0.054722644
88	0xbdaf48e4	-0.08558825
89	0x3c33c468	0.01097212
90	0xbdec7765	-0.1154621
91	0xbdb008df	-0.08595442
92	0xbe245038	-0.16046226
93	0xbe29fbf0	-0.16600013
94	0x3e588a63	0.2114654
95	0x3e13f5d3	0.14449243
96	0x3d91e5c5	0.07123903
97	0xbdc4bfe1	-0.096069105
98	0xbe124be6	-0.14286765
99	0xbdcc6044	-0.09979299
100	0x3e506a0c	0.20352954
101	0x3e721af3	0.23643093
102	0xbdb2dc61	-0.0873344
103	0x3d9e77f6	0.077377245
104	0x3e52602a	0.20544496
105	0xbe200892	-0.1562827
106	0xbd84cce9	-0.06484396
107	0xbdfe46ae	-0.12415825
108	0x3e0b6cf2	0.13615778
109	0x3d05f64c	0.03270559
110	0xbd66ef6e	-0.05638068
111	0xbc20eb2c	-0.009821694
112	0xbe40fed2	-0.18847206
113	0xbe18f832	-0.14938429
114	0xbdff5664	-0.124676496
115	0x3e8e72d7	0.2782199
116	0x3d297c1c	0.041378126
117	0x3dfe4457	0.124153785
118	0xbdcd3936	-0.10020678
119	0x3db79ec7	0.08965831
120	0x3d8b01c7	0.067874484
121	0xbd82478c	-0.06361303
122	0xbd0ce859	-0.03440127
123	0xbda9fca1	-0.08300138
124	0x3e2b2510	0.16713357
125	0x3bffeefa	0.0078104706
126	0x3d62c08c	0.05535941
127	0x3e0b2def	0.13591741
128	0x3e48b059	0.19598521
129	0x3e0e4381	0.13892938
130	0xbe3f344e	-0.18672296
131	0xbd946b93	-0.07247081
132	0x3e0cbffe	0.13745114
133	0x3e2e3a21	0.17014362
134	0xbdc587d0	-0.09645045
135	0x3cca0dc6	0.02466477
136	0xbb6ddd48	-0.0036295224
137	0xbe209962	-0.15683511
138	0xbc9df391	-0.01928118
139	0xbdb40ba9	-0.087912865
140	0xbdbe16f6	-0.09281723
141	0x3e40a60d	0.18813343
142	0x3e0893e7	0.1333767
143	0xbe24d644	-0.16097361
144	0x3e54c011	0.20776393
145	0x3dc550e0	0.09634566
146	0x3df6ec03	0.120567344
147	0xbdecbe61	-0.115597494
148	0x3d32050d	0.043461848
149	0xbce3aae1	-0.027791442
150	0x3cb400e1	0.021973075
151	0x3e16b00d	0.14715596
152	0x3e2223d3	0.15833978
153	0x3d6a42c8	0.057192594
154	0x3d8c192e	0.0684074
155	0x3dcca96f	0.099932544
156	0x3dfd3ffa	0.12365718
157	0xbd4c2780	-0.049842358
158	0x3d9f820d	0.07788477
159	0x3dbfdff1	0.09368885
160	0x3e036ae4	0.12833744
161	0xbd0c6e2a	-0.034284748
162	0x3df8fa06	0.12157063
163	0xbe0470ef	-0.12933706
164	0xbd9ac850	-0.07557738
165	0xbdae0284	-0.084965736
166	0xbdb78fa7	-0.089629464
167	0xbdcbe7d3	-0.09956326
168	0x3e1a3596	0.15059504
169	0x3db7586d	0.08952413
170	0xbdedb0af	-0.11605965
171	0x3cf237af	0.029567568
172	0x3d2264d6	0.039646946
173	0x3c968a9b	0.01837664
174	0x3d980744	0.07423261
175	0xbd94204d	-0.072327234
176	0xbe077beb	-0.13230865
177	0x3d1c1147	0.038102414
178	0x3d171d5e	0.03689324
179	0xbe0148e5	-0.12625463
180	0x3e408c32	0.1880348
181	0x3df3fc91	0.119134076
182	0x3e1a5e15	0.15074952
183	0xbcb39bd3	-0.021924889
184	0x3dd87255	0.10568682
185	0xbe0c97f5	-0.13729842
186	0xbd0d8198	-0.03454742
187	0x3e6d04f0	0.23146415
188	0xbbb255ae	-0.0054423427
189	0xbe5b28eb	-0.21402328
190	0x3dba96c7	0.0911079
191	0x3e03f951	0.12888075
192	0x3cce51e5	0.025185535
193	0xbe3f91eb	-0.18708007
194	0xbe17fd09	-0.14842619
195	0xbe3ca4f9	-0.18422307
196	0xbd90e99a	-0.07075806
197	0xbe529ea6	-0.20568332
198	0x3e31492c	0.17313069
199	0x3e0c6fe6	0.13714561
200	0xbbcc172a	-0.0062283473
201	0x3d35f497	0.044422712
202	0xbc0d18de	-0.008611886
203	0xbe29fb6b	-0.16599815
204	0x3e2e9af1	0.17051293
205	0xbceb187e	-0.028698202
206	0xbdc2295b	-0.09480544
207	0x3da0ce3e	0.078518376
208	0x3debdb9e	0.11516498
209	0xbd90be59	-0.07067556
210	0x3dbc470f	0.09193241
211	0xbd864e1c	-0.06557867
212	0xbae93dfb	-0.0017794961
213	0x3d8c461e	0.06849311
214	0xbc08174d	-0.008306337
215	0x3dcd1093	0.10012927
216	0x3cb02d18	0.021505877
217	0xbda7e3f6	-0.08197777
218	0x3d8ef95b	0.069811545
219	0xbdbc2ffe	-0.09188841
220	0x3d7cfcd9	0.06176457
221	0x3e4c85d5	0.19972928
222	0x3d719ee5	0.058989424
223	0xbd5d3597	-0.054006185
224	0xbe7c7fce	-0.24658129
225	0xbdb3cf80	-0.08779812
226	0x3dc84c64	0.09780195
227	0xbdd982a2	-0.10620619
228	0xbdde7109	-0.108614035
229	0x3e4e7749	0.20162691
230	0x3e0fa382	0.14027217
231	0x3dcab675	0.09898082
232	0xbccfc543	-0.025362616
233	0x3c802563	0.015642827
234	0xbd600003	-0.05468751
235	0x3d7feea1	0.062483434
236	0x3d6b99b9	0.05751965
237	0xba34bf36	-0.0006894948
238	0x3d681b8d	0.0566669
239	0xbd4b45ab	-0.049626987
240	0x3d8dd94d	0.069262125
241	0xbe29713c	-0.16547102
242	0x3d8c20a0	0.0684216
243	0x3e3643ed	0.17799349
244	0x3d8d9e1e	0.06914924
245	0xbe63d2e4	-0.22248417
246	0xbd111f9b	-0.035430532
247	0xbe7fc3ca	-0.24977031
248	0xbd8934d5	-0.0669953
249	0xbdc24af9	-0.09486956
250	0x3d8df150	0.06930792
251	0xbd6dceb4	-0.058058456
252	0x3db19c45	0.08672384
253	0xbdd91a70	-0.10600746
254	0x3afa44d4	0.0019093999
255	0x3d43087e	0.04761552

sequential/dense/BiasAdd/ReadVariableOp:0 f4 [120]
0	0xbd23d91a	-0.040001966
1	0xbd5c7189	-0.053819213
2	0xbd8cf12d	-0.06881938
3	0x3c953b68	0.018216804
4	0xbd61238f	-0.054965552
5	0x3adedf73	0.0017003849
6	0xbc925884	-0.017864473
7	0xbe0d8b33	-0.13822632
8	0xbc67549e	-0.014119295
9	0xbd283e23	-0.041074883
10	0xbc0a6b12	-0.008448379
11	0xbd894eac	-0.067044586
12	0xbde0d478	-0.10978025
13	0xbdb8b1c3	-0.0901828
14	0xbd0bdf67	-0.0341486
15	0xbd37931b	-0.044818025
16	0x3c77b7ce	0.015119506
17	0x3c162152	0.009163218
18	0xbd581ff7	-0.05276486
19	0x3d27e476	0.04098936
20	0xbcf523a1	-0.029924216
21	0xbd86112d	-0.06546245
22	0xbd4a5a5e	-0.049402587
23	0xbd136f62	-0.035994895
24	0xbd81515e	-0.06314348
25	0xbd9fee0f	-0.07809078
26	0xbd3703a5	-0.04468121
27	0xbd858d68	-0.06521112
28	0x3d8954b2	0.067056075
29	0xbda457db	-0.080245696
30	0x3ce8382a	0.028347094
31	0xbc3b72af	-0.011440917
32	0xbca45e10	-0.020064384
33	0xbd404bf2	-0.046947427
34	0xbd126d73	-0.03574891
35	0x3a7819ff	0.0009464323
36	0xbcc374d1	-0.023859413
37	0xbd2880fe	-0.04113864
38	0xbd4d19fc	-0.05007361
39	0xbdb16e6d	-0.0866364
40	0xbbb20586	-0.0054327874
41	0xbd36a349	-0.044589315
42	0xbda05abf	-0.078298084
43	0xbd0fbe5c	-0.03509365
44	0xbddef0a2	-0.10885741
45	0xbdfe0c7c	-0.12404725
46	0x3a69d062	0.0008919296
47	0xbdad0d19	-0.08449764
48	0xbbfb80bb	-0.007675258
49	0x3a928e13	0.0011181257
50	0x3d2d63b6	0.04233142
51	0x3cb0f7fe	0.021602627
52	0xbd9a6b02	-0.07539941
53	0xbcf6f9e8	-0.030148461
54	0xbde6feee	-0.11279093
55	0xbd6bf7d3	-0.05760939
56	0xbcb533f9	-0.022119509
57	0xbd12e375	-0.03586145
58	0x3d3112c1	0.043230776
59	0xbccaea48	-0.024769917
60	0xbcf39fb5	-0.02973924
61	0x3bc7bbc8	0.0060953833
62	0x3cbf1577	0.023325665
63	0xbd5d4b3f	-0.05402684
64	0xbd50843b	-0.050907355
65	0xbc9defd3	-0.019279396
66	0x3b8723bd	0.0041241334
67	0xbe042680	-0.12905312
68	0xbd9f7c0a	-0.077873304
69	0x3cdf35e3	0.027247375
70	0xbdbe87d9	-0.09303255
71	0xbd2a884e	-0.041633897
72	0xbd702ba0	-0.058635354
73	0xb99c155f	-0.0002977056
74	0x3b35eda6	0.0027760058
75	0x3c118563	0.0088818995
76	0xbdc186bd	-0.094495274
77	0xbd1ac4ed	-0.03778546
78	0xbd0daaad	-0.034586597
79	0xbcb4de25	-0.022078583
80	0xbd109242	-0.035295732
81	0xbc76beea	-0.015060166
82	0x3cbab081	0.022789242
83	0x3c245fa2	0.010032566
84	0xbd8f179d	-0.06986926
85	0xbdef4051	-0.11682189
86	0xbda6615c	-0.081240386
87	0xbdd629fc	-0.10457227
88	0xbba2532d	-0.004953763
89	0x3beb7c30	0.007186435
90	0xbcb1d4f3	-0.021707987
91	0xbd3fc3d3	-0.046817612
92	0xbcc17c68	-0.023618892
93	0x3d04ad47	0.032391813
94	0xb9bdbaa6	-0.00036187953
95	0xbd0fff12	-0.035155363
96	0x3d79189a	0.060814478
97	0xbe04042d	-0.12892218
98	0xbd502db8	-0.05082485
99	0xbdc03da5	-0.09386758
100	0xba4e0e2e	-0.00078603893
101	0xbde663df	-0.11249518
102	0xbd913803	-0.070907615
103	0x3d12fa5f	0.035883304
104	0x3d123cdd	0.035702575
105	0xbcfe6c05	-0.031057367
106	0xbe0b2172	-0.13586977
107	0xbe031d33	-0.12804107
108	0xbe08a1b4	-0.13342935
109	0xbdc915ac	-0.09818587
110	0x3d4d2606	0.05008509
111	0xbd98f209	-0.074680395
112	0xbda39399	-0.079871364
113	0xbcb7c981	-0.022434952
114	0xbd544ece	-0.051832967
115	0x3bb724f2	0.005589121
116	0xbd606da8	-0.054792076
117	0xbcf06c08	-0.029348388
118	0xbbe0707c	-0.0068493467
119	0xbc8d79c5	-0.017269978

sequential/batch_normalization_1/batchnorm/sub:0 f4 [120]
0	0xbe9361ab	-0.28785452
1	0xbece2cc7	-0.40268537
2	0xbe501fd0	-0.20324636
3	0xbeea5cc1	-0.4577389
4	0xbec09995	-0.37617174
5	0xbebb3bec	-0.36569154
6	0xbefa469c	-0.48881996
7	0xbef0d284	-0.4703561
8	0xbee521e3	-0.44752416
9	0xbe529897	-0.20566021
10	0xbf0710e5	-0.52760154
11	0xbe8403d0	-0.2578416
12	0xbedee4c6	-0.43533915
13	0xbea8287b	-0.32843384
14	0xbed7fc68	-0.42184758
15	0xbed3d96d	-0.4137682
16	0xbeca0354	-0.39455664
17	0xbf09798f	-0.5370111
18	0xbe5b3403	-0.2140656
19	0xbf0f8e00	-0.5607605
20	0xbecf61ba	-0.40504247
21	0xbea3df13	-0.3200613
22	0xbe9e6248	-0.30934358
23	0xbed02497	-0.40652916
24	0xbe851b24	-0.2599727
25	0xbebff8be	-0.37494463
26	0xbeb855ee	-0.3600306
27	0xbec9c9ba	-0.39411718
28	0xbf16585f	-0.58728594
29	0xbe9430a0	-0.28943348
30	0xbee0a785	-0.43877807
31	0xbf0f691a	-0.5601975
32	0xbeedb27f	-0.46425244
33	0xbebe31f8	-0.37147498
34	0xbf1087dc	-0.56457305
35	0xbecdedc4	-0.40220463
36	0xbed77e5a	-0.42088586
37	0xbf170546	-0.5899242
38	0xbed3370f	-0.41252944
39	0xbe916104	-0.2839433
40	0xbec0ceb4	-0.37657702
41	0xbf1a74ba	-0.6033436
42	0xbea91bb7	-0.33028957
43	0xbe952011	-0.29126027
44	0xbee674e1	-0.45011047
45	0xbee896cf	-0.45427558
46	0xbece2e20	-0.40269566
47	0xbed60910	-0.4180379
48	0xbeb12c8b	-0.34604296
49	0xbf04448e	-0.51667106
50	0xbf0a8c34	-0.54120183
51	0xbf02ce64	-0.5109618
52	0xbec7129d	-0.38881388
53	0xbe927e7f	-0.28612134
54	0xbe9db0a4	-0.3079883
55	0xbe8ffd66	-0.28123015
56	0xbe9e7cb0	-0.30954504
57	0xbeb5d856	-0.35516614
58	0xbeb39bc7	-0.35079786
59	0xbf0e1bdb	-0.55511254
60	0xbe95e65a	-0.29277307
61	0xbf15f5e6	-0.58578336
62	0xbf191549	-0.59798104
63	0xbeccafc1	-0.3997784
64	0xbead01e2	-0.337905
65	0xbec9779c	-0.39349067
66	0xbe8cb2a1	-0.27480033
67	0xbe8be326	-0.27321738
68	0xbea5d24e	-0.32387012
69	0xbee86e34	-0.45396578
70	0xbe7e94de	-0.24861476
71	0xbf06fdcd	-0.5273102
72	0xbea93dde	-0.33055013
73	0xbf1344ae	-0.5752667
74	0xbed3c5e9	-0.4136193
75	0xbee941ed	-0.4555811
76	0xbe91f380	-0.28506088
77	0xbeaaacbe	-0.33334917
78	0xbe982b1e	-0.29720396
79	0xbec1e651	-0.3787103
80	0xbe99aa98	-0.30012965
81	0xbec1095f	-0.37702462
82	0xbecbd411	-0.3981023
83	0xbf0423f5	-0.51617366
84	0xbebb80b2	-0.36621624
85	0xbe9807b2	-0.2969337
86	0xbee3b826	-0.44476432
87	0xbe76730e	-0.24067327
88	0xbeb98bee	-0.3623957
89	0xbee83208	-0.4535067
90	0xbea4af1f	-0.32164857
91	0xbe901b18	-0.2814567
92	0xbe61a976	-0.220373
93	0xbebd26a3	-0.3694354
94	0xbf09306f	-0.5358953
95	0xbec648b9	-0.38727358
96	0xbef361ed	-0.4753565
97	0xbe891e72	-0.2678104
98	0xbec2cd9d	-0.38047495
99	0xbec497b4	-0.3839699
100	0xbef6cdf6	-0.4820401
101	0xbe780720	-0.24221468
102	0xbe7e3768	-0.24825823
103	0xbeb14dbe	-0.34629625
104	0xbef47b14	-0.4775015
105	0xbe598baf	-0.21244691
106	0xbea88b70	-0.32918882
107	0xbefbbe1e	-0.49168485
108	0xbe9f5dd4	-0.31126273
109	0xbe93dee5	-0.28880993
110	0xbeae7e41	-0.340807
111	0xbeab540a	-0.33462554
112	0xbec99cf0	-0.39377546
113	0xbe5f9878	-0.21835506
114	0xbebb3657	-0.36564896
115	0xbf03405b	-0.51270074
116	0xbe9dd1e1	-0.30824187
117	0xbec6e67a	-0.38847715
118	0xbf0191ce	-0.50613105
119	0xbe7000ee	-0.23437855

sequential/batch_normalization_1/batchnorm/mul:0 f4 [120]
0	0x40306d68	2.7566776
1	0x40151bb9	2.329817
2	0x4018226b	2.3771007
3	0x40277249	2.6163504
4	0x4023a5c0	2.5569916
5	0x3ff8d6cd	1.9440552
6	0x400d759b	2.210303
7	0x406e7260	3.725731
8	0x401b8bdf	2.430412
9	0x4031110b	2.7666652
10	0x40193b7a	2.3942552
11	0x400c50db	2.192435
12	0x4048b60b	3.136111
13	0x4030e760	2.764122
14	0x402525dc	2.5804358
15	0x408f1085	4.4707665
16	0x3fdc9869	1.7234012
17	0x4069c5c0	3.6526947
18	0x4022decf	2.5448492
19	0x4010ce24	2.2625818
20	0x40130943	2.2974403
21	0x3ff0bf1f	1.8808326
22	0x403b754f	2.929035
23	0x402389d9	2.5552886
24	0x400a69e6	2.1627135
25	0x40495c48	3.1462574
26	0x4029223d	2.6427147
27	0x3fe64c3b	1.7992014
28	0x401d1797	2.4545648
29	0x402b370b	2.6752346
30	0x4000af76	2.0107093
31	0x3ff975a9	1.9489032
32	0x4012d4f3	2.2942474
33	0x4016dc7a	2.3572068
34	0x4010c77c	2.2621756
35	0x40034d2f	2.051586
36	0x400ea354	2.2287188
37	0x40452d8c	3.080905
38	0x4033f214	2.8116503
39	0x402158ca	2.5210443
40	0x3ff5c1c8	1.9199762
41	0x403f996b	2.993739
42	0x402f58e3	2.7398002
43	0x40011943	2.0171669
44	0x400f8f61	2.2431262
45	0x406a13a1	3.657448
46	0x400fa6db	2.244559
47	0x3ffb620a	1.9639294
48	0x4034da7a	2.8258348
49	0x4031261c	2.767951
50	0x400aa34c	2.1662169
51	0x400b9886	2.1811843
52	0x404377a5	3.0541775
53	0x400ea938	2.2290783
54	0x40203ec1	2.5038302
55	0x40675989	3.6148398
56	0x3fd8e724	1.6945539
57	0x40444926	3.0669646
58	0x401d0f2b	2.4540508
59	0x4059cb4b	3.403033
60	0x4012f476	2.2961707
61	0x40311b76	2.767301
62	0x400de6a0	2.2172012
63	0x401e3265	2.4718258
64	0x402747fd	2.6137688
65	0x403b916f	2.9307516
66	0x3ffe9577	1.9889363
67	0x402b862a	2.6800637
68	0x400d7fc5	2.2109234
69	0x400bea50	2.1861763
70	0x4025e90f	2.5923498
71	0x404c2f98	3.190405
72	0x40464c77	3.098417
73	0x4036cad6	2.8561301
74	0x40171844	2.360856
75	0x40237453	2.5539749
76	0x3ffe7bf6	1.988158
77	0x40123559	2.284506
78	0x4015e656	2.3421836
79	0x4004210f	2.0645177
80	0x40056e98	2.084875
81	0x401c4ae5	2.4420712
82	0x401837e0	2.3784103
83	0x4001359e	2.0188975
84	0x4028f26a	2.6397958
85	0x401f529b	2.4894168
86	0x403e099a	2.969336
87	0x403b336f	2.9250143
88	0x4034b8e0	2.8237839
89	0x401be31a	2.4357362
90	0x4072f231	3.7960322
91	0x4082cf96	4.08784
92	0x40239581	2.556
93	0x4016e1ff	2.3575437
94	0x401a0311	2.4064372
95	0x403e852d	2.9768784
96	0x402b4fd3	2.676747
97	0x402c7e5f	2.695213
98	0x402e6988	2.725191
99	0x4017ee1b	2.3739078
100	0x402fe611	2.7484171
101	0x401bcfb4	2.4345522
102	0x3fe39ffb	1.7783197
103	0x3fdef1f9	1.7417594
104	0x400720bd	2.1113732
105	0x402af730	2.6713371
106	0x40174435	2.363538
107	0x405d2f90	3.456028
108	0x40524d1f	3.285957
109	0x40275f46	2.61519
110	0x3fd392b4	1.6529145
111	0x401c603a	2.4433732
112	0x4010b57d	2.2610772
113	0x3fe3d2e7	1.7798737
114	0x3fcb634f	1.5889682
115	0x4056a703	3.3539436
116	0x4017ebd4	2.3737688
117	0x4048e489	3.1389487
118	0x402b9a28	2.681284
119	0x402b5eec	2.6776686

sequential/batch_normalization/batchnorm/sub:0 f4 [18]
0	0xc5713da1	-3859.8518
1	0xbe8950f6	-0.2681958
2	0x3d7b38f0	0.061333597
3	0xbf02615d	-0.50929815
4	0xbe0dd640	-0.13851261
5	0xbf0e7c70	-0.55658627
6	0xbdfdbb35	-0.123892225
7	0x3c3025c8	0.010751195
8	0xbf08eb99	-0.53484493
9	0xbe51dce4	-0.2049442
10	0xbe99cd64	-0.30039513
11	0xbe78e58a	-0.24306312
12	0xbe0591aa	-0.13043848
13	0xbf07bc1a	-0.53021395
14	0xbfdf4ef7	-1.7445973
15	0xbe335773	-0.17513828
16	0xbf96433a	-1.1739266
17	0xbf32b292	-0.69803727

sequential/batch_normalization/batchnorm/mul:0 f4 [18]
0	0x3ff4400e	1.9082048
1	0x40a8b2bb	5.2718177
2	0x41a4c7df	20.597593
3	0x4042b5a0	3.0423355
4	0x40c21c30	6.065941
5	0x4011e1c9	2.2794058
6	0x413175e8	11.091286
7	0x412bfbb8	10.748955
8	0x4004461b	2.066779
9	0x40809085	4.0176415
10	0x4021a835	2.5258915
11	0x4093f34a	4.6234484
12	0x40c00d36	6.0016127
13	0x40214b3b	2.5202167
14	0x4019d755	2.4037678
15	0x40da4115	6.8204446
16	0x3fff58be	1.9948957
17	0x4003c509	2.058901
